model16.pth (torch, 2903 bytes, 3 tensors)

1.weight f4 [2, 144]
000000 22 c5 60 bc bd 86 f7 3c d5 19 41 3b 78 9d de 3c
       -0.013718875 0.030215615 0.002946486 0.027174696
000010 61 bc a9 3d dc 47 48 3d 1c bd 10 3b 28 c0 8f 3d
       0.082878835 0.048896655 0.0022085374 0.07019073
000020 77 39 a9 3d a2 44 f2 3c f7 97 b1 3c 17 99 0c 3d
       0.08262914 0.029573742 0.021678908 0.034325685
000030 c7 76 9d bb 3f ce 45 3d 8c 55 1e 3e df 0d ae 3d
       -0.004805419 0.048292395 0.15462321 0.084987395
000040 b3 02 49 bd c1 18 8c bb c9 7e 43 be 21 4a 46 bd
       -0.04907484 -0.004275412 -0.19091333 -0.04841054
000050 3f 70 7c bd 3d 6e c5 3e 8c dd 79 3e 2a ca 6e 3d
       -0.061630484 0.38560668 0.2440092 0.058298267
000060 f6 ce 02 3d 3c 0d f1 3c 5d fe 90 3d 62 a8 2f 3d
       0.031935655 0.029425256 0.07079766 0.04288519
000070 12 66 97 bd 82 c9 21 3d 7e a9 2c 3d 60 a5 10 bb
       -0.07392515 0.039498813 0.042153828 -0.0022071227
000080 4f c4 a3 bd 50 da 30 bd 4e d6 44 3d a8 8b 96 bd
       -0.07996427 -0.04317695 0.04805594 -0.07350856
000090 b0 c6 ff 3b 06 b7 3c 3d 70 0b a2 bb 48 55 44 bc
       0.007805668 0.046072982 -0.004945211 -0.011983223
0000a0 4b ad 97 bd be a8 73 bd cd 16 95 3d 59 bd 96 3d
       -0.074061 -0.059487097 0.072797395 0.07360334
0000b0 84 84 eb 3c df 19 86 bd f0 82 a5 3e c8 36 cc be
       0.028749712 -0.06547903 0.3232646 -0.39885545
0000c0 13 ce dc be 90 c9 f3 3c 7f 3c ce be 3b 24 ec be
       -0.43125972 0.029759198 -0.4028053 -0.46121392
0000d0 35 95 91 3e 4e ff ed 3e 4e ae 95 3e 1a f5 e0 3e
       0.28434148 0.46483845 0.29234546 0.43936998
0000e0 ac 23 90 3e 0e 37 d9 3e c0 56 1f be 6c 25 02 be
       0.28152215 0.42424816 -0.15560436 -0.12709588
0000f0 07 f8 0e 3e dd cc 74 be 2d ee 05 3e 44 bc dd 3d
       0.13961802 -0.23906274 0.13079138 0.108269244
000100 91 92 56 3d 79 5e 9d be 48 00 30 3d 4d 9e 07 3e
       0.05238587 -0.3073614 0.04296902 0.1324398
000110 99 6f 01 bd 02 07 c0 3d cc 37 9b 3c 57 60 81 3d
       -0.03160057 0.09376337 0.018947504 0.063172035
000120 d8 1a 35 bc 6f 5d 9a bd 2a 7d 7f 3d 9e c4 37 3d
       -0.011053763 -0.07537352 0.062375225 0.044865243
000130 cc 12 b1 bc 30 21 ec 3c d0 8a a4 bd 69 56 a4 3d
       -0.021615408 0.028824419 -0.08034289 0.08024294
000140 1f 22 c1 be c9 a6 02 bf 58 34 38 3c 00 6a d5 bc
       -0.37721345 -0.51035744 0.0112429485 -0.026051521
000150 ed 9b fa be fa b7 f5 be 79 52 ab 3e 2b bd be 3e
       -0.48947087 -0.47991925 0.3346136 0.372537
000160 08 76 c3 3e 67 86 c1 be 98 b1 99 3e 14 4c bf 3e
       0.38175988 -0.37797853 0.30018306 0.3736273
000170 3d 79 ad 3e 73 e4 c4 3e bf 06 51 be 89 c7 ca bc
       0.3388156 0.38455543 -0.2041273 -0.024753349
000180 e8 df 4f 3c 2d 85 72 3e e3 b9 fd bd d0 ad 9e 3e
       0.012687661 0.23683615 -0.12388971 0.30991983
000190 ce ed c8 bb 24 9d 82 be de 1e 02 3d 87 6d 85 be
       -0.006131864 -0.25510514 0.03176772 -0.26060125
0001a0 e7 4d 4d 3e 95 e1 61 3e 86 49 9a be 39 43 0b 3e
       0.20049249 0.22058709 -0.3013422 0.13599862
0001b0 c0 14 db 3a d0 db 2f bd 90 9d b2 bc 70 e1 ff bc
       0.0016714558 -0.04293424 -0.021803647 -0.031235427
0001c0 80 a9 3e ba 5e c3 9d bd aa e7 88 bd 7c 66 ff be
       -0.0007273182 -0.07703279 -0.066848114 -0.49882877
0001d0 eb a2 92 bd af 99 8a bd 7c d3 db be 7d 23 ae 3e
       -0.071599804 -0.06767594 -0.42934787 0.3401145
0001e0 f8 b4 33 bc e6 f3 ec be e4 e7 0e bf 5f 28 c2 be
       -0.010968439 -0.4627983 -0.55822587 -0.37921426
0001f0 56 5f 88 be de b8 af 3e f8 74 c4 3e b7 de 15 3d
       -0.26635236 0.3432073 0.3837049 0.03658935
000200 d9 a6 06 bf ff f1 1e bf f1 9e 2b 3e 62 3c 4d 3e
       -0.5259834 -0.62088007 0.1675985 0.20042565
000210 f7 a9 bf bd 4c c0 dd 3d 43 5e bc 3d 07 64 af be
       -0.0935859 0.10827693 0.091976665 -0.34256002
000220 ee 3a 06 be b8 9f 7b 3e 5a ac dc 3d 01 45 91 bc
       -0.13108417 0.24572647 0.10775061 -0.017733099
000230 53 6c 35 bd bd 50 46 be e7 56 33 3e 27 0a 38 be
       -0.04429276 -0.19366737 0.1751362 -0.17972623
000240 62 f9 7e bd f1 64 95 bd bb 57 87 bd d2 d4 a8 bb
       -0.06224955 -0.07294644 -0.0660853 -0.0051523233
000250 45 54 18 bc 2c 3e f0 bc f6 25 7a bd 16 a1 77 bd
       -0.009297435 -0.02932652 -0.06107136 -0.060456358
000260 04 60 46 bd aa 8d 27 bd 56 8c b5 bc 63 b0 a5 bd
       -0.04843141 -0.040906586 -0.022161644 -0.08090284
000270 3c 50 04 3b ea a9 f4 bd d9 3f 03 be 15 21 2b bd
       0.0020189425 -0.11946471 -0.12817325 -0.041779596
000280 2c 41 b7 3c 74 43 50 bd 38 e8 8e bd 13 36 f8 bb
       0.022369944 -0.05084558 -0.06977886 -0.0075748055
000290 d7 14 a7 bd 14 2a 0c bd 63 76 bd bd e8 23 3f bc
       -0.08158272 -0.034219816 -0.09251096 -0.011666276
0002a0 67 98 97 3d cd 1b 89 3d 3a 6b 80 bd af 86 84 3d
       0.07402115 0.06694756 -0.06270452 0.06471001
0002b0 20 66 66 3c 42 6e 34 3d f8 53 40 3c e8 46 16 bc
       0.014062434 0.044050463 0.01173877 -0.009172179
0002c0 1c f5 88 3c 36 f5 26 bd 60 69 91 bc bb 79 7d bd
       0.01671844 -0.040761195 -0.017750442 -0.06188367
0002d0 e0 12 8e 3c ab f6 1d bd b0 b1 d9 3c 80 e0 06 3c
       0.017342985 -0.03856532 0.026573986 0.008232236
0002e0 f2 4e 7b 3d e0 e8 95 3c 7e 18 a1 bd 40 8e 76 bd
       0.061354585 0.01829952 -0.07866 -0.060194254
0002f0 8c c8 f3 bc 66 d3 ab bc 6b 6a 03 be b8 63 94 3e
       -0.029758714 -0.020974826 -0.12833564 0.2898233
000300 fc e8 56 3e 7b 12 82 bd 0c 5d 93 3e 8a ba d5 3e
       0.20987314 -0.06351181 0.28781927 0.4174388
000310 f2 9f d4 3b 29 a0 d0 bd c8 af f2 bd 06 8c 30 be
       0.0064887935 -0.10186798 -0.11849934 -0.17240915
000320 b3 6b 87 bd 5a db d5 bd 62 e6 fc 3c 80 eb 02 3d
       -0.06612339 -0.104422286 0.030871574 0.03196287
000330 4e 67 84 bd c4 21 72 bc ea 7d 61 bd 1e d4 d2 bd
       -0.06465016 -0.014778558 -0.05505172 -0.102943644
000340 5d e3 fb bd 0c 80 8a 3c fe f7 e4 bc aa 85 68 bd
       -0.122992255 0.01690676 -0.027950283 -0.056768097
000350 dc f4 e6 bd 84 f7 df 3c 63 54 ca bd 8a 89 3a 3c
       -0.11277172 0.027339704 -0.09879377 0.011385331
000360 fd d2 89 3d 81 9d 95 3d d6 90 1a bd 91 0a a7 3d
       0.06729696 0.07305432 -0.037735783 0.08156312
000370 b5 3a 95 3d 60 57 4e bd 20 31 76 bc 29 1a 94 3d
       0.07286588 -0.050376296 -0.015026361 0.07231552
000380 5b cc 73 3e e7 87 8b 3e 56 02 18 3d 40 d0 a3 bb
       0.23808424 0.27252123 0.037111603 -0.0049991906
000390 e1 f7 35 3e df 11 6c 3e 92 e0 a2 bd ee 34 0a be
       0.1777034 0.23053692 -0.0795299 -0.13496754
0003a0 a8 12 2c be 2f 02 b2 3e 6d e8 0c bc 8b 17 f7 bd
       -0.16803992 0.3476729 -0.0086003365 -0.12065037
0003b0 f9 25 d3 bd 12 2a c9 bd c0 ba e6 bc f6 80 b5 bc
       -0.10309977 -0.098224774 -0.028165221 -0.02215622
0003c0 d3 c3 c1 bd a2 2b 7e bc 60 78 8e bd fe c8 45 bc
       -0.09461179 -0.015513333 -0.069565535 -0.012071846
0003d0 4b f0 49 bd b6 3f be bb 75 70 00 bd 8c 1f 85 3c
       -0.049301427 -0.005805935 -0.031357247 0.016250394
0003e0 8a f2 12 be 89 d0 a9 bc 07 bc a9 bd d7 c4 81 bd
       -0.14350334 -0.02072932 -0.082878165 -0.06336372
0003f0 81 74 9f 3d 47 46 a9 3d ab e5 0d bd e0 22 5c bc
       0.07785893 0.082653575 -0.034642857 -0.013436049

1.bias f4 [2]
000000 f8 13 56 3d aa 3c 6c bd
       0.052265137 -0.05767504

3.weight f4 [1, 2]
000000 27 56 54 bf e1 7f f9 3c
       -0.8294396 0.030456485
