model18.pth (torch, 3799 bytes, 3 tensors)

1.weight f4 [2, 256]
00000000: a23a 263d 761f 9ebd 9e9c c63c 4a09 363b
00000010: 3fed 86bd 104c 35bd 00e1 a93c 484e a4bd
00000020: 2207 5cbd 634e dd3c 6100 a4bc f6a0 c13c
00000030: eec4 323d 7040 f53c 27dc 88bc 546b 51bd
00000040: 1516 dfbb 78a0 34bd 4adf 97bd 7240 70bd
00000050: 7ef9 96bc a336 04bc ff4a 943c 0a91 bc3c
00000060: 4abf 013d 3c97 3fbd 7013 023d 9f9b 9dbd
00000070: 4b61 de3c 6799 80bd 6f3b a43c 0ef8 a4bd
00000080: 64bc 61bd e635 793e 7d8d 643e e7d7 323e
00000090: c545 713e 8f27 633e a43e c8be 486f b73e
000000a0: 6ae6 26bf ff6b 26bf 3535 17bf 69c5 023f
000000b0: ef2a 34bf d307 283f 5f7e b23e dc9e 203d
000000c0: eace 6abd ee42 2bbd 482e f8bc a483 153d
000000d0: 0e1f 7fbd e03c 1d3d e8ad 23bc 08b4 fe3c
000000e0: bc11 eb3c d420 863c 5662 473d 9412 ea3c
000000f0: f02e 983b d222 083d 4c7a 8a3c 6cb1 fcbc
00000100: 16a0 79bd 4476 303d 7c4d a8bc 5c51 9cbc
00000110: 788e 773c 20f0 323c 06f3 2e3d 004a f2ba
00000120: 0a34 13bd 4042 debc f256 3cbd fc3a bd3c
00000130: 22cb 56bd 64c9 a93c 8403 acbc 7008 8b3c
00000140: b8a6 54bd 5a6f 3e3d a854 78bd 3ebd 503d
00000150: 9204 20bd ce24 74bd 0037 10bd 78d7 76bd
00000160: c607 2cbd 1e40 2d3d 4499 ca3c 44e6 433d
00000170: 5878 3d3d 041f 723d 38ab 5abd 20b4 7f3b
00000180: 1e10 633d 402c 4d3c d7f6 06bf e8ca 7ebc
00000190: 8882 2cbd 604f c4bb 8f2e 09bf 0729 14bf
000001a0: e7d6 21bf b003 333f 9e87 2cbf 5a2c 1bbf
000001b0: 8890 babe c49f 2abf 89e9 0cbf 91d5 1c3e
000001c0: 0701 25be e6c9 1e3e 9be1 bfbe 397d 1d3e
000001d0: 0812 b3bc 3e25 093f 42ee f4be 2d3a 263f
000001e0: 1fee 7bbe e5d6 18bf 377a 033f 30bb 0ebf
000001f0: 46a7 8fbe 446c 93bd 5b8b 893e 68a2 55be
00000200: f638 10bd 186c 92bc 908c 3d3c 1c54 debc
00000210: 081c 323d 087e 0dbc 7ee4 033d 000d e339
00000220: 5a29 59bd 20aa 2f3c 180b 323d a85e 433d
00000230: b092 c8bc 8012 953a a0d3 bd3c 88c1 e4bc
00000240: 886a 59bc 4ad2 6a3d b411 ca3c 1090 c33c
00000250: 0425 563d 00e3 0abc d02e 6f3c 20a3 b43c
00000260: fe6b 793d 8840 16bc a0c1 a33c 8c4d ae3c
00000270: d0e6 4f3d 1a2c 23bd 0060 a0bb 9828 05bc
00000280: b024 2d3d 2cd2 01bf 70c9 84bc 0033 edba
00000290: ad94 ffbe a4f8 0abf 32ab 023d c3fd 1c3f
000002a0: b3b8 0e3f 61aa 1bbf d018 4d3f ea84 973d
000002b0: 56f6 37bf 43a7 1ebf 5d7d 16bf a80b 1bbf
000002c0: 97ef 083f c3eb b5be 0e76 b13e 174f c43d
000002d0: 2b4b e33e d8ca bbbe 4fd3 c8be c7d4 e7be
000002e0: ae05 0a3f 752c e4bc feb9 f0be bf54 0f3f
000002f0: 86fd bb3e 529a 193e 01e4 08be 944e d0bd
00000300: ba2a 28bd 2e4a 4c3d f0d2 2c3c 4660 5a3d
00000310: 0253 0fbd 2467 313d c6b8 743d 7071 9a3c
00000320: f461 1f3d 4265 5cbd e48b a8bc 8049 a53c
00000330: 4c47 0fbd 8c23 02bd ac60 5fbd 685a 1abc
00000340: 90bf 783c b046 f8bc 2a34 7ebd c07f 533c
00000350: 4457 9c3c c094 11bc e041 4dbd 800a 8f3a
00000360: aea5 053d a07e 92bc 00d8 f2bb e476 a23c
00000370: 5888 6e3c 22bb 5f3d 7895 7f3d 4c79 b9bc
00000380: e053 35bd 601d a3bb b255 533d dfa7 05bf
00000390: e0bf e63b 004e a73b 316c 2b3f 44c1 fcbe
000003a0: 4449 5c3f ce9f 143f 8b61 323f a844 fb3e
000003b0: 2cf7 453f 76bf 453f cb34 223f 66c1 0e3f
000003c0: 4a8e 0dbf abb2 953e 6e78 22bd 8a70 a9be
000003d0: ef66 efbe 37af edbe b1d4 183f db6c 1a3e
000003e0: 7a36 f4be ba34 263f 8873 dd3e 776e 95be
000003f0: 6941 f83d 25f4 bf3d 4662 44be a3a0 f43d
0.04058326 -0.077208444 0.024244603 0.0027776533 -0.0658822 -0.044261992 0.020737171 -0.080227435
-0.05371774 0.027014917 -0.020019712 0.023636322 0.043644838 0.029937953 -0.01670654 -0.051127747
-0.0068080523 -0.044098347 -0.07415636 -0.05865521 -0.018429514 -0.008069667 0.018102167 0.023018379
0.031676568 -0.046775088 0.03175682 -0.07695698 0.027146002 -0.06279259 0.020047871 -0.08055125
-0.055111304 0.24336967 0.22319598 0.17465173 0.23561771 0.22183059 -0.3911029 0.35827088
-0.65195334 -0.6500854 -0.5906556 0.51082474 -0.7037801 0.6563694 0.34862038 0.039214
-0.057326235 -0.041811876 -0.030295506 0.036502495 -0.062285475 0.038388133 -0.009990193 0.031091705
0.02869498 0.016373076 0.048677765 0.028573312 0.0046442673 0.033236332 0.016904019 -0.03084632
-0.060943685 0.043081537 -0.02054476 -0.019081764 0.015109651 0.010921508 0.042712234 -0.0018485188
-0.0359383 -0.0271312 -0.045981355 0.023099415 -0.052439816 0.020725913 -0.02099777 0.016971797
-0.051916808 0.046492912 -0.06062761 0.050961725 -0.03906686 -0.059605412 -0.035208702 -0.06026408
-0.0419996 0.042297475 0.024731286 0.04782702 0.046257347 0.05911161 -0.053385943 0.0039017275
0.055435292 0.012522757 -0.527204 -0.015551306 -0.04211667 -0.0059909075 -0.5358667 -0.578751
-0.6321854 0.699275 -0.67394435 -0.6061455 -0.36438394 -0.66650033 -0.55043846 0.15315844
-0.16113673 0.15506706 -0.3747681 0.153798 -0.021859184 0.5357245 -0.47838026 0.6493252
-0.24602555 -0.59702903 0.5135836 -0.55754375 -0.28057307 -0.071983844 0.26864132 -0.20862734
-0.035210572 -0.017873809 0.011569157 -0.027139716 0.043483764 -0.008636005 0.03220033 0.000433065
-0.05301795 0.010721713 0.04346761 0.047697693 -0.024484009 0.0011373311 0.0231722 -0.027924314
-0.013270028 0.057329454 0.024666645 0.023872405 0.052281395 -0.008476973 0.014598563 0.02205044
0.060894005 -0.009170659 0.019989789 0.021277212 0.05075723 -0.03983698 -0.0048942566 -0.008127354
0.042271316 -0.5071132 -0.016209334 -0.0018096864 -0.49918118 -0.54285645 0.031901546 0.6132471
0.5575058 -0.6080685 0.80115986 0.07398398 -0.71860254 -0.6197397 -0.5878504 -0.6056466
0.53490585 -0.35531434 0.3466038 0.09585398 0.44393286 -0.36678195 -0.39223716 -0.45279524
0.53914917 -0.02785323 -0.470169 0.5598869 0.3671686 0.15000275 -0.13368227 -0.101712376
-0.041056372 0.04987543 0.010548338 0.05331447 -0.03499127 0.043311253 0.059746526 0.01885292
0.038911775 -0.053807504 -0.020574518 0.02017665 -0.034980103 -0.03177218 -0.054535553 -0.009420969
0.015182391 -0.030307144 -0.062061466 0.012908876 0.01908458 -0.008885562 -0.05011165 0.0010913163
0.032628708 -0.017882645 -0.007411003 0.019832082 0.014558874 0.054621823 0.062398404 -0.022640847
-0.044269443 -0.004977867 0.051595397 -0.52209276 0.0070419163 0.005105734 0.6696196 -0.493662
0.86049294 0.5805634 0.6968009 0.49075818 0.7733028 0.7724527 0.63361806 0.5576385
-0.5529524 0.29237875 -0.039665632 -0.33093673 -0.4675822 -0.4642274 0.5969954 0.15080588
-0.47697812 0.64924204 0.43252206 -0.2918584 0.12121851 0.09372739 -0.19178113 0.119447015

1.bias f4 [2]
00000000: 9c1e 83bc e9b3 30bd
-0.016005807 -0.043140326

3.weight f4 [1, 2]
00000000: 7a26 253f c772 6f3f
0.64511836 0.9353451
