model3.pth (torch, 2007 bytes, 3 tensors)

1.weight f4 [2, 36]
00000000: 708b 373d b209 3a3e 73a2 e0bd 9858 b03c
00000010: 0833 873c f06f 35bc a123 113e 69eb 183e
00000020: 4014 e7bd b5cc 20be d9cd cb3e 4e3c ab3e
00000030: 69d8 efbe e915 68bd 2ced fb3d 54aa b63a
00000040: 50ed cbbe c9d4 5f3e 7d67 a73e 8f60 053f
00000050: 5c5f 15be a0a7 30bd 2039 693e 5335 18be
00000060: 8cb1 443e c37f 0a3e 1b5d 75bd 683c 29be
00000070: c949 ecbe f32b 11bb cb50 253e 5380 8ebe
00000080: 11ba 3dbd 19b5 16be ec70 4a3e 5ac1 b3be
00000090: 7648 f13b 640b 97bd 0357 07be d347 c0bd
000000a0: e2b9 0ebe 3367 133e 70ae 0b3c a854 cfbd
000000b0: 802d b53a 6208 38be 3d79 8bbd c9fe 75be
000000c0: 9ef4 873e 4b9c 8dbd 11e5 20be f7ca 45be
000000d0: 4351 de3e be07 1fbd 3b02 4abe 0f78 8bbe
000000e0: d1cd cdbd 3b12 79be 488c d2bd 02cf 233d
000000f0: 451d 50be 228d 3fbc f621 81be eeb5 7e3e
00000100: 65f7 6dbc 49c2 d83d 5498 5abe dbe4 0e3e
00000110: 7bb7 1ebe 9501 2c3e f2c5 03be 57dd a53e
0.044810712 0.18167761 -0.10968485 0.02152662 0.016503826 -0.011074051 0.14173748 0.14933552
-0.11283159 -0.1570309 0.39805487 0.33444446 -0.46844795 -0.05666152 0.12301096 0.001393626
-0.39829493 0.21858515 0.32696143 0.5210046 -0.14587158 -0.04312861 0.22775698 -0.14864092
0.19208354 0.135253 -0.059903245 -0.1652695 -0.46150044 -0.002215144 0.16144101 -0.2783228
-0.046320025 -0.14717521 0.19769639 -0.35108453 0.0073633743 -0.073752195 -0.13216786 -0.093886994
-0.13938096 0.14394836 0.008525476 -0.10123569 0.0013822764 -0.17971948 -0.06810234 -0.24022974
0.26553816 -0.06914576 -0.15712382 -0.19315706 0.43421373 -0.038825743 -0.19727413 -0.27240035
-0.10049022 -0.2432336 -0.10280663 0.03999234 -0.20323665 -0.0116913635 -0.25221223 0.24874088
-0.0145243155 0.10583932 -0.21347171 0.13954489 -0.1549968 0.16797478 -0.12868479 0.3239543

1.bias f4 [2]
00000000: f8ec 133e a982 57be
0.14445865 -0.21045937

3.weight f4 [1, 2]
00000000: a06f e9be ece0 813f
-0.45592976 1.0146766
