model4.pth (torch, 2263 bytes, 3 tensors)

1.weight f4 [2, 64]
000000 91 31 1e bd a4 b8 b5 bc 3f a6 ab 3d 9e ac ac 3d
       -0.03862149 -0.02218277 0.08381318 0.084313616
000010 3a c5 b7 3d 92 1f 5c 3e e5 95 99 3d 00 65 ee 3b
       0.08973165 0.21496418 0.07499293 0.0072752237
000020 38 c6 64 3d fc 2e c0 bd 7c 6d e3 3d 1e a5 a4 bd
       0.0558531 -0.093839616 0.11104867 -0.08039306
000030 fe e7 b7 bd 20 41 9b 3b e8 9f 9c bd 70 d2 9a 3c
       -0.08979796 0.004737988 -0.07647687 0.018899173
000040 94 5b c6 3e e0 3b dd 3e 10 af f3 bd ee 8d 80 bc
       0.38741744 0.43209743 -0.11898625 -0.015692677
000050 10 7d ba bd 71 10 bc 3d 05 63 b2 bd 4b 12 d7 bd
       -0.09105885 0.091828234 -0.08710293 -0.10501536
000060 5a 32 79 3e 48 e8 7d 3d 70 d6 e3 bd 4e f4 56 3e
       0.24335614 0.0619891 -0.11124885 0.20991632
000070 b8 48 63 3e c7 a7 c5 3d 2f d0 d6 3d 7e e0 5e bd
       0.22195709 0.096511416 0.104889266 -0.05441331
000080 a7 fc 52 3e 6a 9b dc be cf 9c d2 3d a5 53 a1 3e
       0.20604192 -0.43087322 0.10283815 0.31509128
000090 85 31 ac 3e a4 15 34 3e e1 3c e8 be cf 97 67 3e
       0.3363153 0.1758638 -0.45358947 0.22616504
0000a0 21 7b 9b bd 47 0a cb bd d0 36 06 be 34 9c c2 3d
       -0.07591844 -0.099140696 -0.13106847 0.0950245
0000b0 fc ad 84 3e 68 6a 03 3e bb 4f e6 3a cf b4 72 3d
       0.2591399 0.1283356 0.0017571369 0.059254464
0000c0 f3 d0 43 3e 72 ad b8 3e 9a a6 a3 3e 1c 84 75 3e
       0.19122677 0.36069828 0.31963044 0.23976177
0000d0 a4 22 d2 3c 31 cf 7a bd 82 87 76 3e 80 3d 2e be
       0.025651284 -0.06123275 0.2407513 -0.17015648
0000e0 0e 94 07 be a1 99 88 3e c3 18 3d 3e 13 e4 b2 bc
       -0.13240072 0.2667971 0.18466477 -0.02183727
0000f0 29 34 dd bd 42 5f 19 bd b1 5e e1 3d f6 bb 0b 3e
       -0.108009644 -0.03744436 0.11004389 0.1364592
000100 7a ae 4b be f6 d1 36 bd 44 fa 39 be a8 55 64 bd
       -0.19890776 -0.044633828 -0.18161875 -0.05574575
000110 4c 1d 78 3c 40 56 0e be 9c 93 ce bd 28 f8 d4 bd
       0.015143704 -0.1390009 -0.10086748 -0.103988945
000120 a2 a9 c0 3d ec 16 85 bd 20 62 a4 3d 80 72 86 3a
       0.09407355 -0.064985126 0.08026528 0.0010257512
000130 08 19 d1 bc 80 3b 1c bc b8 39 bc bc 54 65 57 bd
       -0.025524631 -0.00953567 -0.022976741 -0.05258687
000140 76 40 1d be d3 f6 7f be 1a 89 14 be 24 42 37 bd
       -0.15356621 -0.249965 -0.14505425 -0.04474081
000150 2e ee ea 3c 16 d4 35 be 18 58 8a 3d c3 f5 25 bd
       0.028678026 -0.17756686 0.06755084 -0.04051758
000160 96 02 1c be f2 1a e4 3d d2 7b cf bd a8 3c c5 bd
       -0.15235361 0.11137952 -0.10131039 -0.0963071
000170 83 af f1 bd bb 4c 90 bd 88 81 0e be c7 6b 10 be
       -0.11801054 -0.07045885 -0.139166 -0.14103614
000180 75 4c 06 be 51 b1 2d 3e 97 28 a1 bc f1 2a 09 be
       -0.13115104 0.16962172 -0.019672675 -0.13395287
000190 5c fa 8f be 9f 0e 40 bd 04 ac b1 3e da 2d 0e be
       -0.28120697 -0.046888944 0.3470155 -0.13884678
0001a0 1f 79 42 3c d2 dd 04 bd 39 81 bd 3d d9 65 f7 bd
       0.011869698 -0.032438107 0.09253163 -0.12079973
0001b0 91 15 ba bd e6 02 05 be 55 9e 06 be 49 90 4c be
       -0.09086145 -0.12989387 -0.13146336 -0.19976915
0001c0 67 a5 3c be 5f b9 4b be 74 ac a4 be 02 12 82 be
       -0.18422471 -0.19894932 -0.3216282 -0.25404364
0001d0 0e 71 b3 bd 1a e2 3e be da 09 67 be 55 ba bc 3b
       -0.08761798 -0.18640938 -0.22562352 0.005759517
0001e0 b5 ec 1a be 59 86 13 be 5f 67 32 be 0c 2d 94 3c
       -0.15129359 -0.14406718 -0.17422245 0.018087886
0001f0 88 71 29 3d 53 3e ac bb f3 cd 79 be 59 cb 65 be
       0.041368037 -0.005256453 -0.2439497 -0.22440852

1.bias f4 [2]
000000 8b ee 1e 3d 03 38 07 3c
       0.03880171 0.0082531

3.weight f4 [1, 2]
000000 fe 0a cb 3e 97 0f 19 bf
       0.39656824 -0.59789413
