model17.pth (torch, 3287 bytes, 3 tensors)

1.weight f4 [2, 196]
000000 82 fb be bd bd c9 d6 3c 29 87 1f bd 4e ad 05 bd
       -0.09325315 0.026219243 -0.03894726 -0.03263598
000010 06 0f 3b bc 53 97 fd bb b5 ad 06 bd 01 41 e1 bc
       -0.011417156 -0.0077389865 -0.032880504 -0.027496817
000020 85 94 e9 bb 3d 85 70 bc 50 0f b2 bd 46 d3 6e bd
       -0.0071283006 -0.014680204 -0.08694327 -0.058306955
000030 10 71 31 bc ee 97 80 bd 32 7a 2c 3d ff 5e 84 bd
       -0.010830179 -0.06278978 0.042108722 -0.064634316
000040 38 3c b3 bd 7b 83 18 bd 01 eb ed bb 9c 6a ca 3d
       -0.0875172 -0.037234765 -0.0072606807 0.098836154
000050 6b 1c 31 3e 77 cf 57 3e 97 33 6d 3e 7c 27 77 3e
       0.17295997 0.21075235 0.23164211 0.24136156
000060 ad cf 89 3d 36 0e 7d 3e 31 c0 34 3e 8a 30 91 3e
       0.06729064 0.24712452 0.1765144 0.28357345
000070 6c 7d 2b 3d dc 9b 3c 3d 23 b0 26 3e 5e 3f 09 be
       0.04186766 0.046047077 0.16278128 -0.13403079
000080 ed 38 fc be 5c 23 b7 3e 70 5d ae bb 5e 7a 01 bd
       -0.4926218 0.35769165 -0.005321197 -0.03161084
000090 c0 06 b2 3a b0 20 3f bd 64 00 11 3d 90 c8 51 3d
       0.0013582334 -0.046662033 0.035400763 0.051216662
0000a0 a2 e3 7a 3d 70 72 14 bd 60 d1 58 bd fb d7 84 3d
       0.061252244 -0.03624195 -0.05293405 0.064865075
0000b0 80 5d 0f 3d d0 ce fc bb f5 95 44 bd ee 2e 11 bd
       0.035001278 -0.0077150837 -0.047994573 -0.035445146
0000c0 f0 a9 89 3b 1e 07 64 bd 7d 15 86 3d f4 16 c9 3c
       0.0042011663 -0.05567085 0.06547067 0.024547078
0000d0 c0 1d 27 3d aa e9 84 bd 2e 47 19 bd 0c 9e 46 3d
       0.040799856 -0.064898804 -0.037421398 0.04849057
0000e0 5c 42 07 bd 12 e9 5b 3d 1a 6a 72 3d 00 b5 97 39
       -0.03302227 0.05368907 0.059183218 0.0002893582
0000f0 3d 7e 84 3d 7c 13 3e 3d 6a 8e ee bc 7c 39 f9 3c
       0.064693905 0.0464053 -0.029120643 0.030422918
000100 00 f5 54 3c ac 08 34 3d 82 0d 2e 3d 7c 0b 9d bc
       0.012997866 0.043953583 0.04249335 -0.019170515
000110 6d 5c 94 be 18 d3 1a 3c 61 fd a2 be c5 27 5d be
       -0.28976765 0.009449743 -0.31833938 -0.21597202
000120 aa 71 29 bd ea fa 87 3e 12 de 16 3f 08 27 ef be
       -0.041368164 0.2655862 0.589326 -0.46709466
000130 f3 35 f7 ba 82 95 d6 3e 2b 8f 8d bd 4b e7 ee bd
       -0.0018860683 0.4191094 -0.06912073 -0.116652094
000140 98 ed c5 3e c2 f4 fe 3e 46 f3 a4 be ee 61 9e bd
       0.38657832 0.4979611 -0.32216853 -0.07733522
000150 84 ac cf 3d 15 3f b4 be 77 5f ab be 49 0e 52 3d
       0.101403266 -0.35204378 -0.3347127 0.051283155
000160 71 4e 94 bc 74 c1 c3 3e 69 0f e8 be 88 68 27 3d
       -0.01810381 0.3823353 -0.45324257 0.040871173
000170 b0 88 e6 be f0 f4 43 3e c4 7b d8 3e be 09 8f be
       -0.4502616 0.19136405 0.42281926 -0.2793712
000180 8b 21 be 3e d2 19 9e be 48 2e 08 bc 2c ae 4b bd
       0.37134966 -0.30879074 -0.008311816 -0.04972665
000190 37 06 8a 3d c4 4a af 3c 92 90 ce bc 85 f1 8a bd
       0.06739467 0.021397956 -0.02521542 -0.067843474
0001a0 c6 82 1b 3d 8a c4 22 bd 06 6c fc bc 4e 6a 60 bd
       0.037966512 -0.039738216 -0.030813228 -0.05478888
0001b0 08 27 56 3d 48 71 7d bd 50 c0 90 3b ce 1b 36 3d
       0.052283317 -0.06187561 0.0044174567 0.04446011
0001c0 00 64 13 3b 20 db 5b bb b3 5b 8b bd a0 ee 23 3b
       0.0022490025 -0.0033547357 -0.068045996 0.0025014058
0001d0 72 04 7d 3d 86 00 95 bc 6f 78 9f be 80 e2 b1 3a
       0.061771818 -0.018188726 -0.3114657 0.001357153
0001e0 76 a4 93 be 98 b1 a7 be fb 8c 5c be fe 60 95 be
       -0.2883641 -0.3275268 -0.21538155 -0.29175562
0001f0 de f6 30 3e 4f 15 c6 be 5f 9a c4 be 87 04 2a bc
       0.17281672 -0.38688132 -0.38399026 -0.010377056
000200 91 5e fc 3e a0 d3 96 3d ca 7f 0a 3f 66 f9 8d 3c
       0.49290898 0.07364583 0.5410124 0.017330837
000210 ff 8c 82 3e 31 4f 9a be 1a ab 60 be 07 a6 87 3e
       0.25498196 -0.30138543 -0.2194027 0.26493856
000220 15 b2 87 be e9 92 0d 3d 6e cc 91 be 21 cb 9b 3e
       -0.26503053 0.034563933 -0.2847628 0.30428413
000230 92 6e f1 be 6c 6b d5 bd df f7 82 be 2d 0b 61 3e
       -0.4715467 -0.1042088 -0.25579736 0.2197692
000240 24 e2 9b 3e c2 72 ae be 20 c1 6d 3d be 4c 65 bd
       0.3044597 -0.34071928 0.058045506 -0.05598139
000250 4a b3 ae bc 80 1f de 3b b8 e7 ac 3c f0 f1 41 bd
       -0.021325726 0.0067786574 0.021106586 -0.04734987
000260 92 3e c5 bc f0 65 5b bd 0a 01 ee bc aa 81 87 bc
       -0.024077687 -0.053564012 -0.02905323 -0.01654132
000270 ce 74 5c 3d 0e 36 2b bd 0a 75 4a bd bc eb 2e 3d
       0.05382233 -0.041799597 -0.049428023 0.042705283
000280 aa 3b 4a bd 1c 03 4d bc 8c ed 10 3d 86 5f 20 3d
       -0.049373306 -0.012512948 0.035382792 0.0391536
000290 82 be 0e 3d fd 01 7e be 8f 44 82 be c8 99 64 be
       0.03484965 -0.24805446 -0.2544293 -0.22324288
0002a0 2a 3f 8b be ff 4b 90 be 3c d6 84 be b0 1a 8e be
       -0.27196628 -0.2818298 -0.25944698 -0.27754736
0002b0 56 63 01 bf 92 1d ae 3e be 3b c1 be 4b 59 f1 bd
       -0.505422 0.34006935 -0.37740892 -0.117846094
0002c0 4b 06 00 bf d3 d5 08 bf 25 7b 94 be 0e 16 d9 be
       -0.500096 -0.5345127 -0.29000202 -0.4239964
0002d0 f2 93 b8 be a4 97 94 be e9 38 3f 3e 64 07 41 3e
       -0.36050373 -0.29021943 0.18674053 0.18850476
0002e0 c4 83 20 3e 8b be 18 bd 96 b5 82 bb c6 ce a5 be
       0.15675265 -0.03729109 -0.003988932 -0.32384318
0002f0 58 b7 9d 3d 7e ad 9c 3e 2a 32 d7 3e f5 00 ea bd
       0.07700986 0.30601114 0.4203046 -0.11425964
000300 5c 8a e7 be a1 6d be be f0 a2 4f be 7f 5d a8 3e
       -0.45222747 -0.37193015 -0.20277 0.32883832
000310 b6 97 42 3c fd d4 b8 3d 25 8f a3 3d d4 ac 88 3d
       0.011876991 0.09024999 0.07986287 0.06673589
000320 41 a9 ea 3d 6f bf 7b 3d 1d 35 6b bc 31 46 a4 3d
       0.11458064 0.061461862 -0.014355925 0.080212004
000330 cc 65 98 3d 46 a8 af 3a e0 32 f1 3d 24 64 80 3d
       0.07441291 0.001340159 0.11777282 0.062691
000340 4c e4 92 3d ac 37 4e 3d ee d8 e6 3d 44 5d da 3d
       0.071724504 0.05034606 0.11271845 0.1066232
000350 77 e1 7e bc e4 10 a2 3c 2f eb 73 be 7b d1 b8 be
       -0.015556685 0.019783445 -0.23820184 -0.3609732
000360 aa 81 a1 be 4e 37 ce be 01 14 cf be 62 50 ee be
       -0.31544238 -0.4027657 -0.4044495 -0.46545702
000370 80 1c be 3b ba d0 9b be 01 6d ed 3d 9e de cc be
       0.0058017373 -0.30432683 0.115930565 -0.40013593
000380 06 e9 a5 3e 2e 05 30 3e 52 7b cf be ab 95 9f 3e
       0.32404345 0.17189476 -0.40523773 0.31168875
000390 86 51 32 3f cb 3f 21 bf 80 6f 5e bd 80 c9 23 bd
       0.69655645 -0.62987965 -0.054305553 -0.039987087
0003a0 2e df 44 bd 83 ce 08 bd df a1 8b 3d 88 c5 69 bc
       -0.048064403 -0.03340007 0.06817984 -0.0142682865
0003b0 60 f3 49 3b e4 55 4e bc e5 3a 86 bd 38 63 9c 3c
       0.0030815229 -0.01259372 -0.06554202 0.01909028
0003c0 b8 44 c6 3c 8a da 0b bd d0 f9 d2 3c c0 39 37 bc
       0.02420269 -0.034143962 0.025753886 -0.011183202
0003d0 60 cc bc 3c a5 97 01 bd c0 79 71 bb 00 e5 1b 3c
       0.023046672 -0.03163876 -0.003684625 0.009515047
0003e0 b8 1f 3e 3d 2a 90 ce bc 10 49 84 bd 95 0b 63 bd
       0.046416968 -0.025215227 -0.06459248 -0.055430967
0003f0 a8 21 6a 3c a6 a2 d5 bc 4e ba 29 3d aa 53 bb bc
       0.014290251 -0.026078533 0.04143744 -0.022867043

1.bias f4 [2]
000000 85 00 bf bd d6 6d 77 3d
       -0.09326271 0.060407482

3.weight f4 [1, 2]
000000 3a ae 92 bf d9 2d 22 3f
       -1.145942 0.6335121
