model15.pth (torch, 2519 bytes, 3 tensors)

1.weight f4 [2, 100]
-0.12680158 -0.04856514 -0.05411093 -0.01419349 0.0013264061 -0.05111086 0.024585873 0.03132211
-0.10681027 0.08778753 0.008967662 0.19387372 0.21239191 -0.15980692 0.035926245 0.046037756
0.07011182 -0.08334817 -0.06959461 0.06999595 0.08045148 0.040719874 -0.018842675 -0.09725871
-0.0872285 0.067336656 0.010646939 -0.038536966 -0.54821706 -0.16377713 0.5104447 -0.52622056
0.009576472 -0.09003037 -0.16726595 -0.43735522 0.34004465 -0.42720166 -0.31229854 -0.50072736
-0.033878118 0.43122032 -0.29229394 -0.37517282 0.09272313 -0.26339594 0.01382744 -0.11538477
0.11800146 -0.16697381 0.11604407 -0.012649953 0.2583982 -0.05374613 -0.027013637 0.106386445
-0.005576451 0.25098023 -0.13862902 -0.4190294 -0.044005495 -0.5464652 -0.24224061 -0.12312832
-0.28674874 0.23398627 0.1147034 0.2957773 -0.26706758 -0.21305966 0.14073078 0.09628837
0.004691691 -0.2759831 0.09557814 0.54904693 0.2933936 -0.06205609 0.028689332 0.31809294
-0.17298195 0.046991296 -0.28619018 -0.24311224 0.016150206 0.5279755 0.3933209 0.5330723
0.44863448 0.4783907 -0.33082083 -0.50871384 -0.18847892 0.44090798 0.3272613 0.0634929
-0.18464382 -0.08375894 -0.023515724 -0.11437956 0.041660644 0.011174076 -0.021935796 -0.019351983
0.14488637 -0.037536073 0.07518972 0.11219437 0.09276945 -0.06821189 0.12022783 -0.21176536
-0.20475401 0.08571244 -0.015798822 0.08742494 -0.006914459 0.020313777 0.005571224 0.04041765
0.07486079 -0.009140685 -0.08664596 0.02085483 -0.0068633407 0.008528627 0.0544445 0.054328583
0.49609497 0.2417161 -0.45178264 0.505726 0.06299296 -0.1959976 -0.046308547 0.28047594
-0.22809687 0.37221077 0.45691878 0.3322381 0.09659996 -0.40847334 0.21311611 0.4390657
-0.032078233 0.16384833 -0.083201595 0.05284598 -0.1961197 0.19937529 0.046193253 -0.056670856
-0.28778356 -0.019096531 0.060307987 -0.11736581 0.046529133 -0.3267085 0.14330038 0.33555678
-0.123354144 0.35396647 0.32960808 0.124407806 0.32889748 -0.26367843 -0.015089001 -0.36797667
0.2933823 0.18859679 -0.2352197 -0.05373403 0.009336238 0.20441784 -0.16137883 -0.43290067
-0.27231905 0.0072160587 0.09488241 -0.3255232 0.2320169 -0.0948442 0.2818011 0.29978392
-0.16705881 -0.4619702 -0.40574285 -0.50095665 -0.4889957 -0.4194525 0.36274445 0.34977394
0.20254585 -0.5019238 -0.100080885 -0.0050898576 0.10237387 0.018571496 0.0643325 0.20047297
00000000: 46d8 01be 3eec 46bd 6ca3 5dbd d08b 68bc
00000010: ceda ad3a 9f59 51bd 5068 c93c 9d4b 003d
00000020: 58bf dabd f3c9 b33d 1aed 123c d586 463e
00000030: 447d 593e 6da4 23be 6627 133d 1692 3c3d
00000040: c996 8f3d 72b2 aabd 9e87 8ebd 095a 8f3d
00000050: bfc3 a43d e2c9 263d f45b 9abc 932f c7bd
00000060: dba4 b2bd cde7 893d 8070 2e3c f0d8 1dbd
00000070: f457 0cbf 31b5 27be 81ac 023f 64b6 06bf
00000080: a3e6 1c3c d861 b8bd c447 2bbe 06ed dfbe
00000090: 551a ae3e 2dba dabe 98e5 9fbe ab2f 00bf
000000a0: c8c3 0abd e9c8 dc3e 8da7 95be a716 c0be
000000b0: a0e5 bd3d d5db 86be 7d8c 623c da4e ecbd
000000c0: c0aa f13d 2ffb 2abe 83a8 ed3d c041 4fbc
000000d0: c54c 843e e724 5cbd b44b ddbc 23e1 d93d
000000e0: a9ba b6bb 7b80 803e c4f4 0dbe 068b d6be
000000f0: 1b3f 34bd 25e5 0bbf ec0d 78be b32a fcbd
00000100: bbd0 92be 199a 6f3e 9ee9 ea3d 1f70 973e
00000110: 15bd 88be 502c 5abe bb1b 103e d632 c53d
00000120: c2bc 993b a84d 8dbe 79be c33d 578e 0c3f
00000130: b037 963e 872e 7ebd e405 eb3c 14dd a23e
00000140: 2e22 31be f279 403d 8587 92be 6af2 78be
00000150: 704d 843c 6729 073f 5b61 c93e 6d77 083f
00000160: 6bb3 e53e a0ef f43e 5961 a9be 123b 02bf
00000170: 9e00 41be b1be e13e cb8e a73e 9108 823d
00000180: 4513 3dbe cf89 abbd 0ca4 c0bc d53f eabd
00000190: 5aa4 2a3d 7913 373c b3b2 b3bc 0d88 9ebc
000001a0: 185d 143e 6dbf 19bd 11fd 993d 29c6 e53d
000001b0: e9fd bd3d adb2 8bbd 023a f63d 05d9 58be
000001c0: 09ab 51be 018a af3d 886c 81bc d90b b33d
000001d0: b092 e2bb 1469 a63c d08e b63b fa8c 253d
000001e0: 9d50 993d d0c2 15bc 7073 b1bd c0d7 aa3c
000001f0: e0e5 e0bb a8bb 0b3c 3201 5f3d a687 5e3d
00000200: 2900 fe3e 6d84 773e 0e50 e7be 4277 013f
00000210: 7402 813d 98b3 48be 08ae 3dbd 8b9a 8f3e
00000220: 3a92 69be 6992 be3e 42f1 e93e 1d1b aa3e
00000230: 33d6 c53d 6b23 d1be 1c3b 5a3e 38cd e03e
00000240: 7764 03bd dbc7 273e 9965 aabd 0775 583d
00000250: 9ad3 48be 0929 4c3e 2335 3d3d b31f 68bd
00000260: 5e58 93be 5470 9cbc 8205 773d 7c5d f0bd
00000270: 5595 3e3d 5646 a7be 56bd 123e 19ce ab3e
00000280: 19a1 fcbd 183b b53e 64c2 a83e 85c9 fe3d
00000290: 4065 a83e dc00 87be db37 77bc 7067 bcbe
000002a0: 3436 963e 841f 413e 6fdd 70be 3718 5cbd
000002b0: 05f7 183c e952 513e 7e40 25be 28a5 ddbe
000002c0: 676d 8bbe b074 ec3b b551 c23d faaa a6be
000002d0: d795 6d3e ad3d c2bd 3c48 903e 477d 993e
000002e0: 7711 2bbe 5c87 ecbe 87bd cfbe b23e 00bf
000002f0: a55d fabe 7ac2 d6be a4b9 b93e 9215 b33e
00000300: 2e68 4f3e 147e 00bf 35f7 ccbd d2c8 a6bb
00000310: 64a9 d13d 4023 983c c2c0 833d c948 4d3e

1.bias f4 [2]
-0.04957876 0.06791691
00000000: 1913 4bbd 0518 8b3d

3.weight f4 [1, 2]
0.87974566 -1.0487819
00000000: 0337 613f 7c3e 86bf
