model14.pth (torch, 2263 bytes, 3 tensors)

1.weight f4 [2, 64]
0.10723263 0.020902202 -0.085558705 0.09517756 0.0936325 -0.13306856 0.005045191 0.08475152
-0.11751288 -0.04375094 0.07184549 -0.013824016 -0.0078320205 -0.07362881 0.033672363 -0.11069487
-0.43529955 -0.3747329 0.023797939 0.3797519 -0.1872648 0.21353008 0.36237633 0.17637339
-0.29414347 0.10754717 0.2550874 -0.046938956 -0.25539285 -0.12993078 -0.11210675 0.12065265
-0.24386589 0.31305146 -0.10784132 -0.23577629 -0.2979819 0.22596303 0.44515434 -0.29238898
0.12140277 0.28632233 0.16245499 -0.07889582 -0.087152764 -0.14278589 0.05439592 -0.060803305
-0.39649007 -0.47453856 -0.32049227 -0.32687843 0.65246654 -0.27760318 -0.3286255 0.3609956
0.2558417 -0.36193272 -0.37020802 0.23619036 0.24307185 0.051917963 -0.14833543 -0.26418406
-0.023221202 -0.01653621 0.06662942 -0.2054638 -0.0314983 0.12418644 0.102447964 0.01139313
-0.030002236 -0.022687793 0.06422722 -0.058641598 0.019289091 0.011914358 0.08908111 0.076906174
0.37145448 0.22174917 0.1379158 -0.3877792 0.3276368 -0.24309574 -0.39202344 -0.25406358
0.25525656 -0.014069934 -0.28927204 0.22375995 0.3061255 0.10042405 0.18631223 -0.13486935
0.4706178 -0.3131308 0.13737036 0.11715154 0.38840503 -0.2659729 -0.47393036 0.4019604
-0.15124254 -0.3571509 -0.30702353 0.124966525 0.074825615 0.16992612 -0.18664941 0.12740612
0.4002363 0.342653 0.29672405 0.3863963 -0.5382233 0.33683538 0.43232238 -0.2756574
-0.222203 0.2948497 0.1875081 -0.26947948 -0.18708833 -0.10761683 0.06960982 0.21654853
00000000: c89c db3d 183b ab3c 6739 afbd 74ec c23d
00000010: 65c2 bf3d 2043 08be 2152 a53b 3492 ad3d
00000020: 98aa f0bd 3034 33bd ba23 933d 207e 62bc
00000030: e051 00bc b4ca 96bd 08ec 093d feb3 e2bd
00000040: 95df debe fedc bfbe e5f3 c23c d76e c23e
00000050: 58c2 3fbe a1a7 5a3e 6489 b93e 3a9b 343e
00000060: f999 96be b141 dc3d d19a 823e 1043 40bd
00000070: dac2 82be 930c 05be 3998 e5bd bd18 f73d
00000080: fbb7 79be 4848 a03e e9db dcbd 576f 71be
00000090: 1591 98be da62 673e 45eb e33e 02b4 95be
000000a0: 04a2 f83d d798 923e 9a5a 263e 2294 a1bd
000000b0: 267d b2bd 7736 12be 42ce 5e3d e30c 79bd
000000c0: bf00 cbbe b8f6 f2be 9017 a4be 9c5c a7be
000000d0: 0c08 273f 0122 8ebe 9a41 a8be 6ad4 b83e
000000e0: affd 823e 3f4f b9be e88b bdbe e3db 713e
000000f0: d4e7 783e eea7 543d 3ee5 17be 2243 87be
00000100: 643a bebc f276 87bc 0175 883d 1a65 52be
00000110: 5d04 01bd 7655 fe3d 3dd0 d13d 40aa 3a3c
00000120: 40c7 f5bc c0db b9bc 9089 833d 2c32 70bd
00000130: 2804 9e3c 7034 433c 2870 b63d fc80 9d3d
00000140: 482f be3e 3712 633e cd39 0d3e ff8a c6be
00000150: 03c0 a73e 17ee 78be 4cb7 c8be 9f14 82be
00000160: fdb0 823e 9585 66bc 771b 94be 5421 653e
00000170: 7bbc 9c3e 20ab cd3d a2c8 3e3e 311b 0abe
00000180: d1f4 f03e ae52 a0be d1aa 0c3e 26ed ef3d
00000190: 06dd c63e 9a2d 88be 00a7 f2be c1cd cd3e
000001a0: 53df 1abe 7cdc b6be 3032 9dbe 73ee ff3d
000001b0: 2c3e 993d 1d01 2e3e 0621 3fbe c076 023e
000001c0: c6eb cc3e 3770 af3e 37ec 973e bcd5 c53e
000001d0: 01c9 09bf b075 ac3e 5c59 dd3e f722 8dbe
000001e0: 2f89 63be 8af6 963e 2002 403e 37f9 89be
000001f0: 1594 3fbe 3666 dcbd 988f 8e3d e6be 5d3e

1.bias f4 [2]
-0.113089226 0.11687747
00000000: 539b e7bd 745d ef3d

3.weight f4 [1, 2]
-0.651815 0.8521357
00000000: 59dd 26bf 9125 5a3f
